code/ConnectX/guarantee_fairness__CONNECT6/model/10_10_6_best_policy_10_10_6_625-0.5717621621502478.model (torch_old, 591675 bytes, 15 tensors)

conv1.weight f4 [32, 4, 3, 3]
00000000: 8c88 bd3d 3a20 ab3d db6d b4bd 48f2 b53e
00000010: 6730 6f3d c1d8 613e 8760 b13d 82b7 3b3d
00000020: 875e 26be a9c3 b03e 8d30 b23d 96b7 f3bd
00000030: d52e 7b3e be9b 06bd aed2 5bbe 8860 8f3c
00000040: f7c9 87be 2ec7 1b3e c7a1 e73a 37f8 1c3e
00000050: 8edc afbd 23b6 d4bd 0374 91be e05b 433e
00000060: de6e a23d 647a 96bc 95e8 b3bd 3fa3 cd3d
00000070: 5227 00bc ae5d b13d 27d0 3e3d cf1e e73c
00000080: 7a42 01be ff82 7dbd 4053 4f3d dc79 d53b
00000090: a528 8e3e ce57 aebe a28b b0bd 1fb3 c13d
000000a0: c9b2 133d d489 89bc e567 bc3d 21e1 5a3e
000000b0: e25e 8e3e 5ce2 b13e f8a3 42be e4a2 95be
000000c0: 469f 3bbd 6957 7d3e 6048 ea3d 81a6 8dbe
000000d0: ee13 913e eacd 3d3e 19c4 123c b180 1a3e
000000e0: fa57 ef3d 5de6 15bc 1780 e3bc da7d c73d
000000f0: 4064 473d 88ee 8a3c 4a4f f83d a2fb d2bb
00000100: c231 8bbd 6360 02be 19f0 06be 7345 06bd
00000110: d102 b33d a7b7 cdbd a524 77bc c81d c53b
00000120: 1495 d6be 653b 82bd 9a71 a13e dcdc 3bbe
00000130: a7fe 1fbd db14 90bd 8db8 9ebe a44e 89be
00000140: 94be 343e 05f5 b0be 895c d4bd 0f4f f13d
00000150: 8f01 88bc 7a66 1e3e 8de4 63bd a774 283e
00000160: e741 ec3d 7371 3bbe 7145 9dbd a70e 213e
00000170: 66e4 e83c e6f4 993c 90a7 81bd 0320 3b3d
00000180: c657 92bc c8cc 92bd 39e3 813d ef20 243d
00000190: 059b d53d 7f6a 6fbe 7194 05bd 799e 8abd
000001a0: d64d 4d3c 61f7 463e 426e 423e 3bb8 ee3d
000001b0: 6cfa 923e 025f 663e 05ce 12bd ac9b 7ebe
000001c0: 29f0 9abe d791 253e ce89 01be 2592 093e
000001d0: 7de4 c03e 5f8b afbd 05d8 98bd 29ae 11be
000001e0: 6838 c3bd a3b6 cbbc 7961 a2bd c497 b33d
000001f0: b648 3abe ecd5 b33d b035 88bb 7123 1dbb
00000200: 1d64 8b3c 1d44 863d d620 0d3d bd30 e83c
00000210: 32c2 e53d e521 b63d 4cbb 163d b195 a5bd
00000220: 6235 0cbe 02df d4bc cf03 1ebd a411 e2bd
00000230: fc31 e4bd d4f0 243e 1315 06bd c9c3 043e
00000240: 9ee2 4d3e c82b 2bbe 2a41 e13d 7e4a 2a3e
00000250: beec 4fbe fdcf 263d ecdd 20be e8ad 193e
00000260: 40cd b33d ed44 783e 3a55 dd3c 850d 873e
00000270: bd12 aebb fbfa 4a3e b75d 7d3e 6744 243e
00000280: 36f2 0abe 52d7 903e ed5b bd3b e2ae 933d
00000290: 00ad 44be 0860 1b3d c20d 84be a842 d1bc
000002a0: 89ca aebd be36 7b3d 211d 223d be57 613b
000002b0: 6c39 6cbd 95a4 e1bb 88ce 8ebe ee94 613e
000002c0: 0613 81be f3b8 853e abe6 7abe c306 b43d
000002d0: 59a6 0dbd 301e 913e 48a0 1b3d a76d 06be
000002e0: e05c 49be fc00 54bd afbc 093e 5a50 283e
000002f0: b09a 443e 6e9f 623d 0743 a23c 02ba ef3d
00000300: e20b 2a3e 5a8e 09bd 61c8 1ebe 7b4c f63b
00000310: 5e4e 4c3e 4ff1 603e 4c0d d7bd 0af3 a3bc
00000320: 1447 1d3c 706e 623c 68c9 fabd 216b 033e
00000330: deda 183b 9215 953d fc22 1ebd a848 bc3d
00000340: 5e4a 6fbd 5b4e b9bd 5164 6d3d 82f2 843e
00000350: a2ca 483d 362a 873d 2c6d db3c 9b0b 573c
00000360: ee33 62be aff8 a63e f4b8 7b3d b259 173e
00000370: 398b 023e 90cb 753e 18b6 63be d0c9 233e
00000380: e952 6d3e 14ce 0abd ab46 55be 9b00 fcbb
00000390: db78 413d 4775 ecbe f788 55bd f866 3fbd
000003a0: c06a fcbd 8efb fd3d 0def e3bc 0168 733e
000003b0: 8e4d 693e 7481 cd3c 258a c8bd 8d20 143e
000003c0: 728c 103e 1ee7 433d f0ec 9dbc 1822 a2bd
000003d0: c7a2 a1be d6df 903c efe8 35be c378 9cbc
000003e0: 4f15 04be 5b56 23be 67dd 2cbe d9fb c53d
000003f0: b067 6dbe 94f1 d43d 6a6f 5b3d 1ae9 37bd
0.0925456 0.08355756 -0.08810016 0.35536408 0.05839577 0.22055341 0.08660989 0.045829304
-0.16246997 0.34524277 0.087006666 -0.119002506 0.24529584 -0.03286337 -0.21467087 0.017502084
-0.26521274 0.152127 0.0017672115 0.15329061 -0.08586989 -0.10386302 -0.28408822 0.19078016
0.079313025 -0.018368907 -0.08784596 0.10040902 -0.007821875 0.08660446 0.04658523 0.028212933
-0.12623015 -0.061892506 0.050616503 0.006514771 0.27765384 -0.34051365 -0.08620383 0.09457993
0.036059175 -0.016789354 0.09199504 0.21374942 0.27806765 0.3474301 -0.19007862 -0.29225838
-0.04580619 0.24740376 0.11439586 -0.27666095 0.28335518 0.18535581 0.008957886 0.15088154
0.11686702 -0.009149161 -0.027771039 0.09740801 0.04867959 0.016959444 0.12124498 -0.0064386884
-0.067966 -0.12732081 -0.13177527 -0.032781076 0.087407716 -0.100447945 -0.01508442 0.006015513
-0.41910613 -0.06358985 0.31531984 -0.1834597 -0.039061215 -0.07035228 -0.31000176 -0.2681781
0.17650825 -0.34561935 -0.10369212 0.11782657 -0.016602306 0.15468779 -0.055637885 0.1645075
0.115360074 -0.18304996 -0.076792605 0.15728246 0.028429221 0.018793534 -0.06330788 0.045684826
-0.01786412 -0.07167965 0.063421674 0.04007047 0.10429958 -0.23380469 -0.032612268 -0.067685075
0.012530765 0.19430305 0.18987373 0.11656233 0.28706682 0.2249718 -0.035841007 -0.24864072
-0.30261353 0.16168915 -0.12650225 0.13434656 0.37674323 -0.08571505 -0.074630775 -0.14226593
-0.09532243 -0.024867361 -0.07928748 0.08769181 -0.181918 0.08781037 -0.0041567907 -0.0023977424
0.017015511 0.0655596 0.034455143 0.028343553 0.112186804 0.088931836 0.036799714 -0.08085192
-0.13692239 -0.025985245 -0.03857785 -0.11038521 -0.11142346 0.16107494 -0.03273494 0.12965311
0.20105979 -0.1671592 0.10998757 0.16629979 -0.20305154 0.040725697 -0.15709656 0.15007746
0.08779383 0.24245043 0.027018178 0.26377502 -0.0053122924 0.19822304 0.2474278 0.16041718
-0.13568959 0.28289276 0.0057787807 0.072110906 -0.1920662 0.03793338 -0.25791746 -0.02554448
-0.08534724 0.061331503 0.03957856 0.0034384574 -0.05767195 -0.006886075 -0.27891946 0.22029468
-0.25209826 0.26117668 -0.24502055 0.08790352 -0.03458247 0.28343344 0.037994653 -0.13127767
-0.19664335 -0.05175875 0.13450883 0.16436902 0.19199634 0.055327825 0.019807352 0.117054
0.16606095 -0.033583023 -0.15506126 0.0075164414 0.1995177 0.21967052 -0.10500583 -0.020013351
0.009599466 0.013820276 -0.122454464 0.12833835 0.0023323814 0.07279505 -0.038607582 0.091935456
-0.05842053 -0.09048148 0.057956997 0.2596627 0.04902137 0.06599848 0.026785456 0.013125326
-0.22090122 0.32611606 0.061455682 0.1478031 0.12748422 0.24003434 -0.22237432 0.15994954
0.23176159 -0.033887938 -0.20827739 -0.007690502 0.047234397 -0.46183226 -0.052132573 -0.046729058
-0.123250484 0.12401496 -0.02782395 0.23770143 0.22783491 0.025086142 -0.09791974 0.14465542
0.14116076 0.047827832 -0.01927802 -0.07916659 -0.31569502 0.017684858 -0.17764638 -0.019100552
-0.12898754 -0.15950911 -0.16881333 0.09667177 -0.23184085 0.1039764 0.05357305 -0.044900037

conv1.bias f4 [32]
00000000: 9ab7 c2bd aca8 c73d 89cc 503e 9527 c33d
00000010: 647a 1ebe 4fa0 3cbe 600e f0bd 3775 5fbd
00000020: 17b8 37bd 8a14 e1bc 4c10 4b3d f9a4 70bd
00000030: 2bac 2ebe fe9d c23d cb01 29be e5c5 adbd
00000040: 5bb7 85bd c206 9dbd 1cc8 ccbd 6f10 88bd
00000050: 77a9 45be fb7c 04be 57cb 433d fc19 9fbc
00000060: 7d23 68bd 4c79 f13c 81c9 60bd 3580 113e
00000070: 56aa 90bd 0b3a 23be 5c6b babd 0935 8fbd
-0.095076755 0.097489685 0.20390524 0.09529034 -0.15476376 -0.18420528 -0.11721492 -0.054555144
-0.044853296 -0.027475614 0.04957609 -0.05875108 -0.17057864 0.09502791 -0.1650459 -0.08485011
-0.06529113 -0.076673046 -0.09999105 -0.066437595 -0.19302927 -0.12938301 0.04780134 -0.01942157
-0.05667447 0.029476784 -0.05487967 0.14209063 -0.07063739 -0.1594011 -0.091025084 -0.069925375

conv2.weight f4 [64, 32, 3, 3]
00000000: a928 ad3c e870 563c 0fdb 023e 54e2 57bc
00000010: f574 e63d 78d0 f6bd 709b 3b3c b66b 053e
00000020: ed50 853d 65cd 83be f0e7 cb3d 8a16 edbc
00000030: e8f8 c8b8 2f94 863d 09d5 613e 4dc3 97bd
00000040: 5725 6a3c 7fe3 87be de33 06be 6fad 943d
00000050: 1a14 94be e4d6 9f3d 61d9 46be 69a9 66be
00000060: d33e 4b3d d4a9 58bc 5901 4bbd c839 b6bd
00000070: 03d3 9fbd d2a3 12be 43e9 86bd d2fa a13b
00000080: b72f 113e faf6 d23d 0123 043d 079b 2cbe
00000090: 8e87 16be 65ce 8e3d f677 57bd a52a ef3b
000000a0: fa9d e3bc fb62 a4bd 639b 17be 9af2 adba
000000b0: f5cd c4bd 841a 4bbe 2354 af3d 9f1c bfbb
000000c0: d05f 88bc 5bdb e53d 537f 48be 02fb fdbd
000000d0: 87d1 4dbe 7000 11bd 3f23 2bbe 264a 24bd
000000e0: 0485 1c3d d01b a93d 7699 9ebc 02fc e2bb
000000f0: bbd0 5bbe f93b 353e 0b18 fc3d 1c0c 35bb
00000100: e72f 443e d4ce 283e c4ab 99bd 83e1 233d
00000110: bdfb 383e 23f9 9cbd bb6f dbbd a4a8 67be
00000120: 98b7 4b3c 5c2a 7a3e 7a6a 763c fef0 ea3c
00000130: 1ede 25be c44f fa3d d354 353d 86e6 99bb
00000140: 339f b2bd ca0e ebbd db5f 083e 67f2 e0bd
00000150: 0fc7 d5bc 51b9 e53a a402 283d 5de8 76bd
00000160: 3caf 9d3d 2000 b13d f7ad bc3d 5de3 c33d
00000170: 46bb 523e 8a53 cb3d 930a 3dbd 840d f3bd
00000180: cb92 8abd 8e6b 1bbd a82f 0fbe d4a2 b63d
00000190: 668a 953c 5c17 17bc beda 3c3a 1c95 bc3d
000001a0: b374 ab3d 0eed 7eba 5436 963d c154 b1bb
000001b0: fa56 bebd e60b 13bd 6d3c a9bd 982a 77bd
000001c0: af92 c23b 942f e03d 1e30 04be a974 1d3e
000001d0: e8ae 10bd 0711 113c 051d 49bd 5406 09be
000001e0: 5c57 d63a c4d1 953c b859 cebd 515b 183e
000001f0: e490 bfbd 767f 29be cac0 033e 0bde 1bbe
00000200: cf30 0dbe 1d08 d6bd 9cde 15bd 7382 e2bc
00000210: d5ff 46be cb99 bbbc c4f8 a5bd 9c71 63bd
00000220: 7f1b 523c 0854 e8bc 69c4 64bd 0ad3 483e
00000230: 0529 c4bc e318 423d df30 0dbe 0ef8 9fbd
00000240: a1d9 99bd 1efc 88bb 10f5 063d fea6 db3c
00000250: 1fcf 2c3d 625b 17bd 09c3 0c3d c8f6 e2bd
00000260: a957 64be 418b fc3d aa20 90bd 03fa dabc
00000270: 09c4 3a3d 0769 34bd 9d05 bbbd 34bb 7fbd
00000280: e133 79bd bfe8 97bd 91f3 e1bd eb7a d33d
00000290: 8488 d5bd b933 253e e09d 82bd 766c 1e3d
000002a0: d91a d8bd d01f 7ebd 5ed5 79bd b75c 503e
000002b0: b2a8 21be 9fbb fabd e8ab 5ebe e896 403e
000002c0: 645b b0bd ed81 09be c123 5dbe 80d0 8d3e
000002d0: 0031 28be 0e8a 313c bd46 babe f217 2fbc
000002e0: b0c5 25bd c5db 1b3d 63de 49be 6927 b73c
000002f0: 22d0 6c3d 311f 07be 4464 1f3e ce33 9abd
00000300: 177c 03bd 25f2 fbbd 6d05 513e 94c2 213e
00000310: baa0 d13d 6822 74bd 46f3 f93c cfd9 093e
00000320: 9edb 51bd 55c8 70bd 1d72 17bd 85b7 39be
00000330: 6401 62be 5605 f8bd 4b49 a03d 1242 1d3e
00000340: f35c 4a3d 30f6 36be 0fd6 e1bd 34c8 b03d
00000350: 692e 26bc 6ad3 963d d8f7 4bbe b852 573d
00000360: 5bce 57bd 1183 033d 65e1 83be 94f5 ad3d
00000370: d457 09bd 8be5 163e b33f 74bd c631 2cbd
00000380: 26fc 8d3d 7992 963d d43c af3d 850b f7bd
00000390: a22c 993d e3c2 02be 6182 d7bc d597 27be
000003a0: 5303 dcbd 29a6 b9bd d1be a1bc f1ce 07be
000003b0: 1a20 9ebd a88f e6bd 107e 3c3c b41b a5bd
000003c0: 1e7d 5fbe 5cb0 ccbc d9a3 18bd 9ef1 20bd
000003d0: 220d bebd 74f4 fdbd eb50 ecbc 576f cdbd
000003e0: e67c febd 9a37 b7bd 02e7 043b fe70 6fbe
000003f0: 569b 3c3d c7c1 3f3d aac7 bc3d 8bf5 8e3c
0.021137552 0.013088442 0.12778877 -0.013176519 0.112527765 -0.12051481 0.011450633 0.1302937
0.06509576 -0.2574264 0.09956348 -0.028941412 -9.5831056e-05 0.065712325 0.22053923 -0.074102975
0.014291129 -0.26540753 -0.13105723 0.07259642 -0.28921586 0.07804659 -0.19418861 -0.22525562
0.04962046 -0.013224084 -0.049561832 -0.0889774 -0.07803919 -0.14320305 -0.0658746 0.00494323
0.14178358 0.10301013 0.032259945 -0.16856013 -0.14700148 0.069729604 -0.052604638 0.007298785
-0.02778529 -0.080266915 -0.14805369 -0.0013271153 -0.09609596 -0.19834334 0.0856097 -0.0058322693
-0.01664725 0.11223479 -0.1957982 -0.124013916 -0.2009946 -0.035400808 -0.16712664 -0.040109776
0.03821279 0.08257258 -0.019360285 -0.0069270143 -0.21466343 0.17698659 0.12309273 -0.0027625626
0.19158898 0.16485149 -0.07503465 0.040009987 0.1806478 -0.076647066 -0.1071467 -0.22622925
0.012433909 0.24430221 0.015040034 0.028679367 -0.16198012 0.12222245 0.044270348 -0.00469667
-0.08721771 -0.1147743 0.13317816 -0.109837346 -0.026095895 0.0017526542 0.041018143 -0.060280193
0.07699439 0.08642602 0.09212869 0.095648505 0.20579252 0.09928043 -0.046152662 -0.11867812
-0.0676628 -0.03794437 -0.13983023 0.08917776 0.01825447 -0.009221878 0.0007204226 0.09208128
0.08371868 -0.0009724655 0.07334581 -0.005411715 -0.09293933 -0.03590002 -0.082634784 -0.060343355
0.005937896 0.10946575 -0.1290898 0.15376534 -0.035323054 0.008854157 -0.04909994 -0.1338132
0.001635294 0.0182885 -0.10075706 0.14878584 -0.093538076 -0.16552529 0.12866512 -0.15221421
-0.1378815 -0.10450766 -0.03658925 -0.027650094 -0.1943353 -0.022900483 -0.08104089 -0.05552827
0.012823938 -0.028360382 -0.055851374 0.19611755 -0.02394534 0.047387015 -0.13788174 -0.078109846
-0.075122125 -0.0041804453 0.032948554 0.026813027 0.042189714 -0.036952384 0.034365688 -0.11082226
-0.22299065 0.12331248 -0.0703748 -0.026730543 0.04559711 -0.044045474 -0.0913193 -0.06243439
-0.06084049 -0.0741744 -0.11032785 0.10326179 -0.10426429 0.16133012 -0.063777685 0.038677655
-0.10551996 -0.062042058 -0.0609945 0.20347868 -0.15787008 -0.12242817 -0.21745265 0.18807566
-0.086111814 -0.13428469 -0.2159567 0.27698135 -0.16424942 0.010836137 -0.36382094 -0.010686861
-0.040471733 0.038051385 -0.1971374 0.02235766 0.05781568 -0.13195492 0.15565592 -0.07529412
-0.032100763 -0.12302045 0.20412226 0.15796882 0.10235734 -0.059603125 0.03051151 0.13461994
-0.051234834 -0.0587848 -0.03697406 -0.18136413 -0.22070843 -0.12110393 0.078264795 0.15357235
0.04940505 -0.1786735 -0.110271566 0.08631936 -0.010142901 0.07364543 -0.19918764 0.05256912
-0.05268703 0.032107417 -0.257579 0.08494106 -0.033531025 0.14736001 -0.05963106 -0.042039655
0.06932859 0.07352156 0.08556524 -0.12062744 0.07479216 -0.12769656 -0.026307287 -0.16366513
-0.107428215 -0.09064896 -0.019744309 -0.13262536 -0.07720967 -0.11257869 0.011504665 -0.080619246
-0.21825072 -0.024986438 -0.037265632 -0.039292924 -0.09279849 -0.12400141 -0.028847178 -0.10031002
-0.12426166 -0.08946152 0.0020279293 -0.23382947 0.046046577 0.04681566 0.092177704 0.017451068

conv2.bias f4 [64]
00000000: 203c 99bd 03a3 89bd 7cac 87bd 95d0 6dbd
00000010: 0909 4dbd 8040 5fbd 5044 b83b 5636 93bd
00000020: 1558 e5bc 4f2a 1cbe 2202 d1bd 42bc 9dbc
00000030: 37c4 c136 eadc 483c 6b5d 2cbd 2a12 843d
00000040: 2d77 50bd 9401 9ebd 2023 8cbd 6773 3cbc
00000050: a5e8 93bd ddbf c8bb 6afa bd3d 2f0a 0fbd
00000060: fa36 023c ba03 9abd 4897 5ebd c6be 94bd
00000070: f1b6 0abd f647 cf3c 1e74 9bbd 384e 803d
00000080: 47ea 42bc 23b7 f1bc 6c17 6dbc 4f67 ccbd
00000090: 0578 7b3d cf8c 4d3d c0e4 d5bc 1ff5 a83c
000000a0: 414e b6bc 101b 223d ec7d 87bd c4c2 d3bc
000000b0: 1f2b a63c 8f13 18be 4518 91bd 79f8 4a3c
000000c0: d497 12be 21d7 ebbc dfc9 04bc 842b 29ba
000000d0: fdd3 f1bc ea33 9dbd a527 bebc 29a7 63bd
000000e0: ad6f b1bd 1c57 90bd a555 e7b8 4f6e 65bd
000000f0: 07fa 443b 5d93 abbd 910f 09bd 56fb 1ebe
-0.07482171 -0.06720545 -0.06624696 -0.058060247 -0.050057445 -0.05450487 0.005623378 -0.07188098
-0.027996102 -0.15250514 -0.10205485 -0.019254807 5.7746906e-06 0.012259701 -0.042081278 0.06448777
-0.050894905 -0.07715145 -0.06842637 -0.011502123 -0.07222108 -0.0061263875 0.09276278 -0.03492182
0.007947678 -0.07520242 -0.05434349 -0.0726295 -0.033865873 0.025302868 -0.07590507 0.06264919
-0.011896676 -0.029506272 -0.014470916 -0.09980642 0.061393756 0.050183114 -0.026110053 0.020624695
-0.022254111 0.03957659 -0.066158146 -0.025849707 0.020284234 -0.14851211 -0.07084707 0.012388342
-0.1431573 -0.028789105 -0.00810477 -0.0006453323 -0.02952003 -0.076759174 -0.023212263 -0.05557934
-0.086638786 -0.07047865 -0.00011030891 -0.0560134 0.0030056254 -0.08377717 -0.03346211 -0.15525565

conv3.weight f4 [128, 64, 3, 3]
00000000: df86 153c 7267 3d3d c4f3 d43d 9313 f53c
00000010: 6543 1cbd 7821 74bd e889 a13c 9ade 163a
00000020: 3414 af3c 7222 113d b2db bfbd cb2b 2f3d
00000030: e787 6b3d 7bfd 71bd 73b1 943d 0fe7 c53d
00000040: 012f 083e ad1c aabd 9a71 e73d 7427 133e
00000050: dfe9 453c 1cca 543c de35 c2bd be11 37ba
00000060: def7 08bd 8506 883d d630 063e 9908 993d
00000070: afd8 e63b 17ce d03c 8125 5b3c 9ce6 133d
00000080: 09dc 213d 3671 2bbe 19b5 9ebd f4b8 e33a
00000090: a3e5 143e fe55 8e3c 751d eb3c 22ac afbc
000000a0: 2a40 9c3d aed5 38bc 89d4 6a3d 6fac 5a3d
000000b0: 33b7 de3d 90f6 abbd deb8 85bc ded6 033e
000000c0: 3f75 8dbd c979 95bd f47c ff3d ffbb f23c
000000d0: 3494 edbc 1297 1b3e 3a4f bebd 9236 86bc
000000e0: 9e46 80bd bf72 01be c05a d0bc 3b2f a33d
000000f0: 11cd 833d 0485 2c3b 8a02 6c3d d3d8 a53d
00000100: 9064 893d b146 88bd 42e9 a03c 5c6d c73d
00000110: da3d 403c ab4b afbd 8908 8c3d fe89 273e
00000120: 9541 0bbd 3cc2 b73d d94c a33c ac2e eb3d
00000130: 274f fa3c e910 d4bd e09e 9abd bd66 b2bb
00000140: fbd9 a33d 2a6f 683d 64da 4ab9 6aea e3bb
00000150: 53cf a6bd c78d 203c 6680 7a3d 1323 483d
00000160: 8f3b 49bd 97b0 c2bd d273 0c3e 5c7f 9bbd
00000170: 92e4 2bbd d6c1 44be 39ca cfbd 79be 0cbe
00000180: 4dfa 0e3d b00d bdbd 6f54 1bbe b43a 0cbc
00000190: f303 a8bd 341c efb9 9bc4 01bd 14d8 953c
000001a0: 2837 963b 3668 8c3d ac2b c8ba ee54 ecbc
000001b0: 1127 19b4 b82c bcb4 d342 1fb4 1aad 0a34
000001c0: f485 a8b6 d023 7831 1c44 bfb6 2001 0534
000001d0: fbf0 4334 d012 483d 3164 0bbc ec94 613c
000001e0: e4ab b83c 40e5 b43b 5445 a8bc c4e1 1f3d
000001f0: 803d ef3c cb9a 933d 2049 2e3d 477b 85bd
00000200: 55e6 3ebe 8b1b 9e3c 457c 54bd ccb6 4d3d
00000210: d7ad a73c 214c 8abd 2356 963c 11f6 15bc
00000220: 7a67 913d 0d54 513d 951b 373b ef2a babc
00000230: 3502 19bc 72e1 453d af82 5b3d eb2b 833d
00000240: 5cd3 44bc 33b4 5b3d 8283 91bd 43bd 5b3c
00000250: d4ee 6dbd ccfe 3dbc 7a3c 23bd e8c9 1a3d
00000260: 82bd 95bc db40 003e 437c 9c3d 2230 993b
00000270: a3c4 a3bc d53f 65bc 811c cd3d 2378 88bd
00000280: 8419 613d a3e8 2a3d 1ba8 19bd e79b 0f3c
00000290: 6afe c9bb a420 a2ba 2a4a 8abd 4a24 bfbd
000002a0: bc4b b83c ca71 923d 4a96 90bb b8bf f83c
000002b0: e35e e9b9 9155 dcbc 778f bf3c f40f 0abd
000002c0: a917 a9bc 3725 99ba fc1d 0abc b9a1 9dbc
000002d0: c874 893d e536 3ebd 7575 e73b 3d8b 7cbd
000002e0: 8835 92bc a981 91bc 3208 13be 79fe c3bc
000002f0: 5871 03bd 9537 203d c543 b73d dfe9 b13d
00000300: 63ac 54bd 7ca2 33bc 0e0d 74bd e82f ff3c
00000310: 2304 403c cb64 53bc 2e00 b5bc f7ab d43d
00000320: b39a 0b3e 6246 16bc cda2 6b3d c513 7d3c
00000330: 58ec 95bc 84a2 9bbc 4ad4 16bd 1d47 1bbe
00000340: e3ea a13a ee57 f4bc 8295 9b3d e30a 20bd
00000350: d386 0f3e 1542 4c3d 70a2 893d b29b 1c3d
00000360: 9b7b 77bd 336b 203d 039e 23bc d7bd 063d
00000370: 2f0b 033e 77b9 58bc df19 323d 2703 17bd
00000380: 8def a8bd a2a9 463d c51a 04bd ebba 90bc
00000390: cf96 933d 03bc a83d 35b9 6f3e b8a8 493d
000003a0: a2a6 8c3e 8671 3d3d f64b 0c3e 961f 80bc
000003b0: 6005 08be 836a 293e f86a 503d 76e2 5dbd
000003c0: 1907 363e 2774 b8bc 40a2 083e 2ab9 5d3d
000003d0: d2f7 763c 25ec b43c ffbe 83bc 1077 c33d
000003e0: 8985 5d3d 348c dd3c 5691 26be 683f 263d
000003f0: cd16 e43c 4d2d 003d f221 04bd 7404 503d
0.009126394 0.04624123 0.10398057 0.02991656 -0.03815021 -0.05960223 0.01971908 0.0005755216
0.021371938 0.03543324 -0.093680754 0.042766374 0.057502653 -0.05907963 0.07260408 0.096632116
0.1329918 -0.08306251 0.11300965 0.14370519 0.012079685 0.01298764 -0.094829306 -0.000698354
-0.03343951 0.066418685 0.13104567 0.07472343 0.0070448737 0.025488896 0.013375641 0.036108598
0.039516483 -0.16742405 -0.077493854 0.0017373846 0.14540724 0.017374989 0.02870057 -0.021444384
0.07629426 -0.011281414 0.057331596 0.0533871 0.10874786 -0.083966374 -0.016323503 0.12874934
-0.069071285 -0.07298619 0.12475005 0.02963066 -0.029001333 0.15194348 -0.09292455 -0.016383443
-0.06263469 -0.12641428 -0.025433898 0.07967993 0.06435598 0.00263244 0.05761961 0.080979966
0.06708634 -0.06654108 0.019642476 0.097376555 0.011733497 -0.085593544 0.068375655 0.16361234
-0.03399809 0.08972594 0.019934105 0.11483511 0.03055532 -0.10354788 -0.07549834 -0.0054443763
0.08000561 0.05674664 -0.00019345578 -0.0069554346 -0.08145013 0.009799427 0.061157607 0.048861574
-0.049129065 -0.09506338 0.13716057 -0.07592651 -0.04196603 -0.19214568 -0.10145993 -0.13744535
0.034906674 -0.09231126 -0.15168928 -0.008558918 -0.08203878 -0.00045606645 -0.03168164 0.01829151
0.004584212 0.06855814 -0.0015271804 -0.028849091 -1.4263448e-07 -3.5050266e-07 -1.483234e-07 1.2915226e-07
-5.0223844e-06 3.6109107e-09 -5.7001726e-06 1.2387e-07 1.8248458e-07 0.048846066 -0.008507774 0.013768416
0.022542901 0.005520493 -0.02054087 0.039033666 0.02920413 0.07207259 0.042550206 -0.06517654
-0.18642552 0.019300243 -0.051876325 0.050223157 0.020468635 -0.06752802 0.01835162 -0.009152905
0.07099815 0.051105548 0.0027940024 -0.02272555 -0.009338905 0.048310705 0.053591426 0.06404861
-0.012013283 0.05363865 -0.07105161 0.013411823 -0.058089092 -0.011596393 -0.039852597 0.03779021
-0.01827884 0.1252474 0.076408885 0.0046749273 -0.019991225 -0.0139922695 0.10015202 -0.06663539
0.054955974 0.041725766 -0.037513833 0.008765197 -0.0061643617 -0.0012369347 -0.06752427 -0.093330935
0.02249705 0.0715061 -0.004412447 0.030364856 -0.0004451192 -0.02689627 0.023383839 -0.03370662
-0.020641165 -0.0011684065 -0.00843 -0.019242154 0.067117274 -0.04643907 0.0070635625 -0.061656225
-0.017847791 -0.017762022 -0.14358595 -0.023925053 -0.032090515 0.039115507 0.08948473 0.086871855
-0.051922213 -0.010964032 -0.059582762 0.031150773 0.011719736 -0.012902449 -0.022094812 0.10384362
0.13633232 -0.009172054 0.057528306 0.015446608 -0.018301174 -0.018998392 -0.03682355 -0.15163846
0.0012353327 -0.029827084 0.07596876 -0.039072882 0.14016275 0.04986771 0.067204356 0.03823442
-0.060420614 0.039164733 -0.009986403 0.03289589 0.12797235 -0.013227812 0.043481704 -0.03686824
-0.08248816 0.04850162 -0.032252092 -0.017667254 0.07206499 0.082389854 0.23410495 0.04923317
0.2747088 0.046250843 0.13700852 -0.015640061 -0.132833 0.16544537 0.050883263 -0.054171048
0.17776145 -0.022516323 0.13343143 0.054131664 0.015073733 0.022085259 -0.016082285 0.09544194
0.054082427 0.027044393 -0.16266379 0.040587813 0.027842904 0.031293202 -0.032258935 0.050785497

conv3.bias f4 [128]
00000000: cd97 b83c a45c 73bc 59db 113d 8e73 c6bb
00000010: beba a0bc 5362 36bd 1483 ee3d ea04 cfbc
00000020: 4f8d 4cbd 7215 0c3c 0bf9 d63c fd6e 023d
00000030: 88f8 453b 8abd ae3e a735 a2bc 8a40 61bb
00000040: 0ad4 c1bd 85e7 aa3c 76dc 2fbc 006a 923d
00000050: 7310 de3c 0d72 0fbc 72d7 ddbc 361f 21bb
00000060: 63a6 183e abb3 4ebc c7da 1abd f77b fa3d
00000070: 30e9 0aba bf4f 903c 9f6a 0f3c 9b77 473c
00000080: a5ee bfba b5e2 abb9 385f f8bc e6c8 a239
00000090: 5328 00bb 6fc0 f1bd bf8a 6cbc df2d e5bb
000000a0: 9902 093e e885 87bc ece2 0bbd 1266 54ba
000000b0: c6e7 213e b12c d43c 9f17 cf3c 01e6 0dbd
000000c0: 02a4 24be d9ec 19bd f17a c8bc 48e7 47bd
000000d0: c15d a23c 6f39 473d 988e a3bb c7c4 073d
000000e0: 5ea7 8ebd 69f4 72bc f9d7 4abc c671 84bb
000000f0: 95c1 29bc bc21 64b9 7155 8dbd edda 02bd
00000100: f795 553d 136c 83bd 05b4 61bd 64f7 83bd
00000110: 9ba5 f63b 1f7a d23d aa50 baba be50 103e
00000120: 15f7 9ebc e244 e83a 68b9 9abd 0071 293c
00000130: b09f 74bd faf6 433a 608f c3bc 8dfd bd3d
00000140: 5aa2 65bd 5a36 553c 15ff 023e 7176 92bd
00000150: 36a0 e13c d246 58bd 62e0 d0bc 214f b5bd
00000160: 12c3 e5bc 7d39 e7bb 7afc c53b 1856 03be
00000170: 1fbd 093d 8eb2 e1bc 80d4 4ebd 69dd 3f3b
00000180: c5b1 473b b0b0 bd3c a54f 213c d5ad 123d
00000190: 7af1 21bd 136c ea3b ca13 cc3b f3e1 e43c
000001a0: c1f3 0fbe 0ff3 4d3b 3eb6 96bb 7631 f4bd
000001b0: 69ab 13bd ddc6 803d e8ae 09bd c788 963e
000001c0: 0688 583c f3f8 56bd 1296 383d ad89 23bc
000001d0: 8ddd 89bc 7904 423b b2c6 503e e763 973b
000001e0: 6405 5a3c ea85 04be a276 ec3a 2020 a73c
000001f0: 29f9 d8bc 225c 98bb b478 89bc 98c8 613e
0.022533322 -0.01485363 0.035609577 -0.0060562557 -0.019620296 -0.044527363 0.11646095 -0.025270898
-0.04993945 0.008550035 0.0262418 0.031844128 0.003020795 0.34128982 -0.019800974 -0.0034370744
-0.09464271 0.02086235 -0.010733714 0.07149124 0.027107453 -0.008755219 -0.027080271 -0.0024585254
0.14907221 -0.012616078 -0.0378063 0.12230676 -0.000529903 0.01761615 0.008753448 0.012174512
-0.0014643265 -0.00032784572 -0.030318841 0.0003104873 -0.0019555285 -0.11804282 -0.0144373765 -0.0069939937
0.13379897 -0.016543344 -0.034151956 -0.0008102368 0.15811071 0.025900217 0.025279818 -0.034643177
-0.16078189 -0.03757939 -0.024472686 -0.04880455 0.019820096 0.048638757 -0.0049913637 0.033146646
-0.069655165 -0.01482878 -0.012380593 -0.004041883 -0.010361095 -0.00021756341 -0.06901062 -0.031947065
0.05214497 -0.06417098 -0.05510332 -0.064436704 0.007527066 0.10277199 -0.0014214714 0.140933
-0.019404927 0.0017720724 -0.07554895 0.010341883 -0.059722602 0.0007475462 -0.023872077 0.092768766
-0.056063034 0.013013447 0.12792619 -0.07151497 0.027542215 -0.052801915 -0.025497619 -0.08852983
-0.028047118 -0.0070564137 0.0060420604 -0.12825811 0.033627626 -0.027550962 -0.050495625 0.0029276258
0.003047095 0.02315554 0.009845649 0.03581031 -0.03953693 0.0071539967 0.006227945 0.027939772
-0.14057828 0.0031425392 -0.0045993617 -0.119234964 -0.03605214 0.0628793 -0.03361407 0.29401228
0.013216024 -0.05248351 0.045064993 -0.009981555 -0.016829276 0.0029604717 0.20388296 0.0046200636
0.013306949 -0.12941709 0.0018040726 0.02040106 -0.026485996 -0.004649655 -0.016781189 0.22049177

act_conv1.weight f4 [4, 128, 1, 1]
00000000: 4d2f bc3c 5e22 b33c 0330 143c 5f3a 9c3c
00000010: 60b5 e63a 6839 5c3d f687 ae3d ccdc 873c
00000020: 514c aabb 2701 043d 56d3 3d3c 98f7 aa3d
00000030: 36e6 58bd daf7 8b3e cf99 95bb 1da8 533d
00000040: 78d4 a9bd ea99 01bd 53c6 98bd 4c8e 213e
00000050: d845 1c3d b0d8 393d f58d c8ba 9b3f 6c3b
00000060: 3933 2a3e 973c 64bd 5dec 883c 0874 c93d
00000070: c985 023c 0dca b6bc 36de 523d 5e5a 6dbb
00000080: 589b 80bd 4f60 2c32 b5d3 5abd 2956 13bd
00000090: 57a1 0e3d a9e3 9bbd 1cb1 bcbc ff40 853c
000000a0: bcb9 603d 1d6f 4fbb 0099 adbd bc8f 5dba
000000b0: 7726 ee3d 520d 333c be2d 1a3d b4d9 d2bc
000000c0: edcb 2cbd a9d8 68bd ca48 3f3d 87fb 353d
000000d0: 5a62 ce3d 2773 8fbc e4c6 583d e713 053d
000000e0: 8442 ac3c 282b a83b e747 b03d 9499 ce3b
000000f0: 5406 06be 21eb b9b4 7d02 ccbd 963f 34bd
00000100: 1918 b53c c889 50be 4252 8f3c 7f50 a2bd
00000110: d394 78bc 02d0 eb3d 5398 1d3c fceb 363e
00000120: 4322 5bbe 7131 69bc 2287 03be 919e 90bb
00000130: 49f2 0dbe 9998 acbc c1b0 d4bd 672c 2a3d
00000140: 074e c339 3ba7 5c3d 6713 d13d 4ec8 a7bb
00000150: 6213 033c 91e0 9cbd d6db 02bd 520c 3cbe
00000160: b2d7 70bd 3724 913d 0196 c2bd 5078 a7bc
00000170: e543 0b3d d552 e6bd dd1e dcbd 272b 6cbd
00000180: 7a9e 9abb 643a 2abc 940d b5bb 2880 a83c
00000190: d088 a93c 6963 9cbc 20c0 56bd 1f72 883c
000001a0: 7137 4dbd dd81 253c d2da c53a 3c46 18be
000001b0: ad74 a1bd ecbd c63c a0d0 013e fa5c 873e
000001c0: 542f 19bc 36c8 65bc 4ac6 b0be 9871 133d
000001d0: 1572 74bd 8e5b 973c ceff 083e 3519 dabc
000001e0: 57cc 1dbb be8a 8abd fdb8 243d af62 103d
000001f0: c7c5 d33c 155c 6dbd 70ab 7ebc cff8 9f3e
00000200: 808b 6232 1016 05b3 1a5e 1dba 0d1b 51b4
00000210: 7438 4333 38ac dd32 0a22 3eb5 5480 feb1
00000220: d461 9b21 8795 35ba 0038 b5af 8a33 2fb2
00000230: 7b0f 21aa 895a 93b4 7f61 9336 0f73 44b3
00000240: 99b7 4fa1 573f 7321 f091 e130 6321 4cb3
00000250: 0cf0 3f31 5b6f d532 6c01 1ab9 4326 fbb2
00000260: 6796 b6b7 7566 8f9f dfe3 feb0 0ab8 bbba
00000270: 9e5a b29f 5e34 b636 27f8 7236 1e5f 071f
00000280: 39f3 a31f 045e a632 59fe a831 d57b 4821
00000290: 0b29 4db2 b286 6db2 4aba 48b2 7844 9333
000002a0: 5df9 6a33 abd5 f9b3 4c88 bd9f 0084 f6b3
000002b0: 4ceb faaf 465c 28b5 2def 5ab4 9a76 be36
000002c0: d92d e133 e028 6db2 2069 a2b3 379a fdb5
000002d0: da48 f120 c8d2 d532 2445 5134 e7a3 d71f
000002e0: 0f95 29aa fced 1bb3 9c79 3632 fc1c 87b2
000002f0: 37f4 6e32 baab 6832 341f 36b3 20cd 3730
00000300: a4fc 8f31 d808 ad31 7463 0521 248a 2c33
00000310: f09a 8f33 639a d533 d479 e1b3 2439 15b9
00000320: 0c39 b0b2 bdee c8a0 3287 a833 8e96 ec33
00000330: 6d18 eaa0 937d 7034 f9f8 6a21 d434 dfa0
00000340: ba8a 05b3 8246 5134 84e2 dbb3 b04e f132
00000350: e851 3d33 09af 9833 974d 05b4 bbc7 2fa1
00000360: 2b7a 1fb2 5126 fe9e e08d 7ab0 a473 3933
00000370: 615c a09f d1c2 3ea1 2ec5 a6b8 2409 3bb4
00000380: f6e5 d0b0 7132 31a1 e6a5 bf32 71f8 52b5
00000390: 00e7 a7b2 caf6 88b3 4ff0 66b1 e50d 87a1
000003a0: 25e7 a5b1 140d 1fb3 65b6 7c21 0d40 6ca1
000003b0: 14fb 6531 1811 4eb4 74d7 8b33 ffa3 c7b2
000003c0: 6e95 5eb5 41db 7e31 3777 af32 3a1a 1b33
000003d0: 1ee9 18ae 23af 9db3 725f 7931 20cb f933
000003e0: 1a32 0433 8359 3033 a1a0 d3b2 463e 3d2e
000003f0: d88d e730 fdc4 e1b2 ca6f 4a34 080d 521f
0.022971774 0.021866973 0.00904465 0.019070802 0.0017601661 0.053765684 0.08522026 0.016584776
-0.005197086 0.03222766 0.011586031 0.08348006 -0.05295392 0.27337533 -0.0045654546 0.051673997
-0.08292478 -0.031640925 -0.07459702 0.15776938 0.038152546 0.045372665 -0.0015301096 0.0036048654
0.16621102 -0.055721845 0.01671427 0.09836584 0.007966467 -0.022313142 0.051481448 -0.0036217193
-0.062796295 1.0033616e-08 -0.053424556 -0.03597084 0.034821834 -0.07611782 -0.023033671 0.016266344
0.05486463 -0.0031651922 -0.08476448 -0.0008451899 0.1162843 0.010928469 0.03764128 -0.025738575
-0.042186666 -0.05684725 0.046700276 0.04442933 0.10077353 -0.017510964 0.052924052 0.032489683
0.02102781 0.0051320978 0.08607464 0.006304929 -0.13088351 -3.4630014e-07 -0.09961412 -0.044005953
0.022106217 -0.2036506 0.017495278 -0.0792551 -0.015172201 0.11514284 0.009618836 0.17863458
-0.21399789 -0.014232979 -0.12844518 -0.004413434 -0.13861956 -0.021068858 -0.10385276 0.04154625
0.00037251433 0.05387042 0.10208779 -0.0051203137 0.008000227 -0.0766002 -0.031947933 -0.18364075
-0.058799453 0.070869856 -0.09501267 -0.020443112 0.034000296 -0.11246268 -0.10748074 -0.05765834
-0.004718599 -0.010389898 -0.0055253003 0.020568922 0.02069512 -0.019090371 -0.05242932 0.01665598
-0.0501017 0.010101763 0.0015095121 -0.14870542 -0.07883582 0.024260484 0.1267724 0.26438123
-0.009349663 -0.014024785 -0.34526283 0.035997003 -0.05967911 0.018476274 0.13378832 -0.026623348
-0.0024078095 -0.06764744 0.04021548 0.035250362 0.025851144 -0.057949144 -0.015543804 0.31244513
1.318665e-08 -3.098654e-08 -0.0006003097 -1.9474483e-07 4.545332e-08 2.5806102e-08 -7.083005e-07 -7.406962e-09
1.0529103e-18 -0.00069268834 -3.2963499e-10 -1.0198059e-08 -1.4305043e-13 -2.7446757e-07 4.3922914e-06 -4.573945e-08
-7.037732e-19 8.241543e-19 1.6412383e-09 -4.7527816e-08 2.793061e-09 2.4847102e-08 -0.00014687114 -2.9237645e-08
-2.1766127e-05 -6.0732357e-20 -1.8545697e-09 -0.0014321816 -7.5535846e-20 5.430119e-06 3.6205254e-06 2.866604e-20
6.9435563e-20 1.9367697e-08 4.9183595e-09 6.7926526e-19 -1.1941903e-08 -1.3825842e-08 -1.1683889e-08 6.857675e-08
5.4709165e-08 -1.1633832e-07 -8.02701e-20 -1.1479278e-07 -4.5641924e-10 -6.271915e-07 -2.0389844e-07 5.6762483e-06
1.04857186e-07 -1.38045095e-08 -7.562835e-08 -1.8894851e-06 4.0875197e-19 2.4892316e-08 1.9489795e-07 9.1327196e-20
-1.506193e-13 -3.6305195e-08 1.0621445e-08 -1.5729249e-08 1.3908951e-08 1.3543223e-08 -4.2403556e-08 6.686651e-10
4.1905697e-09 5.035968e-09 4.519378e-19 4.017251e-08 6.6871394e-08 9.946668e-08 -1.04995394e-07 -0.00014231034
-2.0515039e-08 -3.4039302e-19 7.8477015e-08 1.1016992e-07 -3.9657306e-19 2.2397425e-07 7.9611796e-19 -3.7812628e-19
-3.1092647e-08 1.9490292e-07 -1.0239185e-07 2.8091875e-08 4.4079485e-08 7.10989e-08 -1.2414817e-07 -5.9556647e-19
-9.282796e-09 -2.6909143e-20 -9.1151087e-10 4.3178844e-08 -6.7915464e-20 -6.463234e-19 -7.9522244e-05 -1.7419057e-07
-1.5199351e-09 -6.003669e-19 2.2310768e-08 -7.8592626e-07 -1.9546405e-08 -6.377884e-08 -3.3606005e-09 -9.151634e-19
-4.82841e-09 -3.7031967e-08 8.562232e-19 -8.004468e-19 3.3466607e-09 -1.9191464e-07 6.5118826e-08 -2.3241226e-08
-8.2918893e-07 3.7086496e-09 2.0426894e-08 3.6112603e-08 -3.476785e-11 -7.3427394e-08 3.6288523e-09 1.1631914e-07
3.0779212e-08 4.1059604e-08 -2.4636678e-08 4.3028935e-11 1.6847777e-09 -2.6283027e-08 1.8853385e-07 4.448001e-20

act_conv1.bias f4 [4]
00000000: df4a 883e 45dd 5bba 5e0a 4232 272d 77bc
0.26619622 -0.0008387159 1.1294643e-08 -0.015086449

act_fc1.weight f4 [100, 400]
00000000: 6c01 58bd 740f b6bd c868 503c 6e94 683b
00000010: 7f9e 64bd 40bc 873c 53dd 24bd 139e cc3d
00000020: cd6f 30bd e0fb f73b ed69 353d 02a1 1e3c
00000030: ad15 623d 7c3e 7a3d 7ed2 4c3d 8b1b 8c3d
00000040: 71b0 cfbc 0c9d 4e3d 086e a83d a350 09be
00000050: 4d80 32bd 9609 f0bc 3e6c 8c3c 11d7 be3c
00000060: f1c1 2c3d 457e 23bd 041f fcbc f606 bb3c
00000070: ba87 ebbd af5f f53c 413c 50bb f7ab e8bc
00000080: 8a6e a83d 24e0 c63d 9475 0d3d f05f cb3c
00000090: e433 eebc 165a 0fbd 12d7 56bc 2842 c7bd
000000a0: 22c9 c1bd ae73 3fbc 84d7 363d ac7f e8bc
000000b0: bbc7 1a3d 0117 133d 2b6e a73b 9163 7f3c
000000c0: 87f4 a73c 667a 51bd 7213 d53c 3ed6 2abd
000000d0: efc7 8dbc a9b2 ce3c 7462 90bc db18 45bc
000000e0: 6b02 1c3d f44b e1bc 1e6e cbbd 155a 93bd
000000f0: ab06 aebd b4f1 9fbd a840 2c3d e11e 363b
00000100: c489 afbd f723 81bd bb5f fdbc afe8 a5bd
00000110: a246 80bd 1a0e bebd 67fe 483d 20ed d0bd
00000120: 81c9 673c ed87 87bd a1f7 c2bc 013b bbbc
00000130: 8964 84bd 5dcb 2ebd 774c 02be 83ea 57bd
00000140: 8adb 06be 270c cfbd 35a1 e0bd 7ef9 bbbd
00000150: eb81 afbd ffb9 d8bd a04c 02be c039 e3bd
00000160: 28e7 d5bd 7239 2cbe fe6c 61bd 0eb5 9cbd
00000170: 4c2a 5abd 344e 10be 94c5 30be 89d8 75be
00000180: f84a 59be 0de1 5ebe 27f9 4dbe 70d9 41bd
00000190: fa55 1c23 be66 5a2f 5fe3 7d30 8892 b12f
000001a0: 8289 d630 301a 5a30 3879 c7b0 ebf7 0ab0
000001b0: f43a 00b0 ccb3 f4aa 5ec2 b8af a4c5 0a31
000001c0: 7d14 9731 7fbc 8632 86a1 0cb2 1a4d 0a32
000001d0: d7f0 e9b1 f8c0 fd31 d460 65b2 c343 33b1
000001e0: d05e 3a2f 516f 2bb1 fa66 8db1 58e4 08b2
000001f0: d852 7432 95e5 7731 b83b cab0 462d 8632
00000200: 1574 1bb2 5a67 5e31 b9e7 f3b0 0405 3f32
00000210: 9138 cdb2 7368 5332 4ab4 06b1 ce7b 1232
00000220: 621f e6b0 3b77 7a32 5266 f7b0 c6e5 55b1
00000230: c86e 29b0 1cf7 12b1 bc8e 53b2 db78 d731
00000240: f7b1 c0b1 046e eeb0 46a4 5f32 3aa3 bbb1
00000250: 152f 1a31 02b2 f02f 18db 0db1 481b be30
00000260: 62a6 d531 6fb0 4230 b9fd 7131 2e01 d630
00000270: 14d1 1bb0 b645 6bb1 1e6d d2b1 f6ac 1730
00000280: 282e 54b1 90fb 5e32 bf2e 5cb2 35f3 0731
00000290: 7956 65b1 65b4 5332 eae1 3eb2 93d0 f131
000002a0: 6a71 c831 00d7 602d 9030 6e30 da65 b831
000002b0: 4828 8d32 5c3f 23b2 44fc 9931 9206 cbb0
000002c0: 4a07 64b2 75d0 b9b1 3a89 bc31 5cd0 b02f
000002d0: c3e9 fdaf a36b a931 51f0 0b32 82cc d231
000002e0: 4643 d7b1 57a0 8c31 60da 0db2 62ac 98b1
000002f0: af08 13b1 4651 9caf 6c25 ff29 5a19 2eaf
00000300: 5a60 3eb0 3dee 82b0 eef5 3ab0 f00a 0bb0
00000310: fa82 29b0 48bf 5130 0760 1f2f 992d 1c2a
00000320: 1004 55b1 7c8e 0132 a945 0132 02fe 6ab2
00000330: fbef d1b1 d479 22b2 e268 01b2 2e5e 5931
00000340: f088 83b1 4496 92b0 b1b9 8fb1 90b2 b8b0
00000350: 7eb7 b831 c4d3 2633 08a2 8b32 7a0c 9032
00000360: f795 fe31 cee4 c432 2e0c a2b1 29fd 15af
00000370: 78be b8b0 5375 f930 faa1 6031 5132 0e32
00000380: 9025 8e2f f970 5232 5283 8db2 4e32 d831
00000390: 8252 b630 0092 d1ab 003e 28af a790 3432
000003a0: d4f7 4431 7c07 892f 53dc 5132 14af a731
000003b0: fb5f 7ab2 f4a7 6932 389c 2630 d283 01b0
000003c0: 14a9 5bb1 c02c 132f 9a6c 3931 42c5 07b1
000003d0: 8ae8 edae 51cc 9031 1d46 7d31 3488 4931
000003e0: b479 19b1 645f 2d2f e1ee f5b0 8f4c 2731
000003f0: 2b7b a7b0 0ac1 ab30 0c6e d630 6853 8531
-0.05273573 -0.08889666 0.012720294 0.0035488862 -0.055815216 0.016569257 -0.040250134 0.09991088
-0.04307537 0.0075678676 0.04429047 0.009681942 0.055196453 0.061094746 0.05000543 0.06841191
-0.025352689 0.05044274 0.08224112 -0.13409667 -0.04357939 -0.029301446 0.017141458 0.023295911
0.042177144 -0.039915342 -0.030776508 0.022830468 -0.11500497 0.029952852 -0.0031774195 -0.028402312
0.08224209 0.0971072 0.03453596 0.02482602 -0.029077478 -0.034998022 -0.0131128 -0.09729415
-0.09462191 -0.011685295 0.044639125 -0.028381191 0.037788134 0.03591061 0.0051095686 0.015587703
0.020502342 -0.05114212 0.026010249 -0.041708224 -0.01730725 0.025231676 -0.017625071 -0.012029852
0.038088243 -0.027502038 -0.099331126 -0.07194916 -0.084973656 -0.07809773 0.04205385 0.0027789401
-0.085711986 -0.06305688 -0.030929437 -0.081010215 -0.06263472 -0.092800334 0.049070742 -0.10201478
0.014147163 -0.06617723 -0.02379972 -0.022855284 -0.06464488 -0.04267441 -0.12724482 -0.052713882
-0.13169685 -0.1010974 -0.10968248 -0.09178446 -0.08569702 -0.10582351 -0.12724543 -0.11094999
-0.1044448 -0.16818789 -0.055035584 -0.07651721 -0.053262994 -0.14092332 -0.1726287 -0.24008383
-0.21220005 -0.21765538 -0.20114575 -0.047326505 8.474983e-18 1.9863486e-10 9.236398e-10 3.230023e-10
1.5609631e-09 7.934515e-10 -1.4513608e-09 -5.055642e-10 -4.6649906e-10 -4.3467866e-13 -3.360751e-10 2.0193989e-09
4.3970076e-09 1.5685371e-08 -8.185799e-09 8.050188e-09 -6.808573e-09 7.385207e-09 -1.33515705e-08 -2.6086446e-09
1.6950286e-10 -2.494705e-09 -4.115347e-09 -7.968161e-09 1.4221506e-08 3.6073733e-09 -1.4714407e-09 1.5620241e-08
-9.048581e-09 3.2364e-09 -1.7746437e-09 1.1118804e-08 -2.3890864e-08 1.23055655e-08 -1.9602049e-09 8.526468e-09
-1.6743622e-09 1.4579025e-08 -1.8000696e-09 -3.112619e-09 -6.163927e-10 -2.1386262e-09 -1.23142705e-08 6.2710632e-09
-5.6081677e-09 -1.7348047e-09 1.301766e-08 -5.460973e-09 2.2436712e-09 4.3782228e-10 -2.064274e-09 1.3832073e-09
6.2180314e-09 7.0827516e-10 3.521434e-09 1.5570885e-09 -5.668579e-10 -3.4236627e-09 -6.1242096e-09 5.517927e-10
-3.0876297e-09 1.2979299e-08 -1.2816314e-08 1.9783333e-09 -3.337304e-09 1.2322833e-08 -1.11108225e-08 7.0377353e-09
5.8336598e-09 1.2780665e-11 8.6652907e-10 5.366684e-09 1.6432878e-08 -9.502255e-09 4.4815653e-09 -1.4772061e-09
-1.3273004e-08 -5.4079075e-09 5.487121e-09 3.2162262e-10 -4.618653e-10 4.9307842e-09 8.1455065e-09 6.1350542e-09
-6.2649717e-09 4.092765e-09 -8.256933e-09 -4.44338e-09 -2.1396251e-09 -2.8433983e-10 1.13307665e-13 -1.5834214e-10
-6.925852e-10 -9.526456e-10 -6.8015893e-10 -5.058345e-10 -6.166797e-10 7.6305584e-10 1.4495082e-10 1.3871403e-13
-3.0997889e-09 7.5411855e-09 7.524627e-09 -1.3678347e-08 -6.109983e-09 -9.457342e-09 -7.532636e-09 3.163119e-09
-3.82817e-09 -1.0665606e-09 -4.1829584e-09 -1.3438513e-09 5.3759655e-09 3.8842487e-08 1.6255413e-08 1.676948e-08
7.409422e-09 2.2921451e-08 -4.716205e-09 -1.3641412e-10 -1.3441896e-09 1.815048e-09 3.2688363e-09 8.2769285e-09
2.585634e-10 1.2249296e-08 -1.6474278e-08 6.2921464e-09 1.3265693e-09 -1.4890866e-12 -1.5301538e-10 1.0510269e-08
2.8662628e-09 2.4925473e-10 1.2215497e-08 4.8802438e-09 -1.4573739e-08 1.3600573e-08 6.061245e-10 -4.7117255e-10
-3.1964804e-09 1.338547e-10 2.6982776e-09 -1.9757214e-09 -1.08188195e-10 4.2141797e-09 3.68562e-09 2.9326772e-09
-2.233361e-09 1.5768148e-10 -1.789399e-09 2.4345217e-09 -1.2185856e-09 1.2496753e-09 1.5601826e-09 3.8802916e-09

act_fc1.bias f4 [100]
00000000: 7455 c1bd b626 46be 99ab 49be f808 5fbe
00000010: 337b 0fbe ce76 dcbd 21ad 8dbe de6e 2dbe
00000020: 7f5c 3abe 0da8 ccbd ff4e 43be c5fc 093d
00000030: a2db 03be 4ebd b43e 37be 103c a309 cf3d
00000040: 5705 a83e be64 cfbd 634d 043c d5c6 25be
00000050: b4e2 1ebe 7a61 34be e1bd 9cbd 8b17 dfbd
00000060: 34ad ac3c 5a84 ee3c a576 25be 8ace e2bd
00000070: 593d 05be 312d 4bbe 67e7 79be c5ec a93e
00000080: 3bba a5bd eaf6 92bd c0f5 47bd 9918 ecbd
00000090: 9a47 82bd 7ba6 c5bd a08f 953e 5325 6fbe
000000a0: fd25 34be 2346 aa3d 02ea 653d 78f9 38be
000000b0: 9cd3 803e 93a7 813e 3ee3 b6bd 9dd6 8c3b
000000c0: 47a0 023e 7364 22be f121 32be bd6d 913d
000000d0: 06f4 4b3d 2e28 d0bd 2b32 573e 44b8 853e
000000e0: 5037 8abd edfc e33c 7c12 adbc b554 21be
000000f0: 1372 8dbe a3b2 a33e da75 63be f85f b1bd
00000100: 4642 d9bd 3748 c7bd b313 34bc caf9 cabd
00000110: f866 953e 5cb6 48be e1a2 3bbe 346a 11be
00000120: ef59 05be 534f 4dbe b6b0 c83c 9ac1 b53c
00000130: 6fd8 51be 2f52 b1bd 38af cdbd 6387 31be
00000140: 610f 5abe 929a 1dbd 3887 d2bd 29f8 9e3e
00000150: e392 70bc 7b79 4c3d b961 bc3e 65f9 e1bd
00000160: c1ea a7bc 9e01 3abe c696 bdbd 07c3 66be
00000170: 195c 24be 911f 87be 4477 10be 6d2f e0bd
00000180: d208 93be db17 3dbe 2b9f 42be e130 f7bd
-0.09440127 -0.19350705 -0.19694366 -0.21780765 -0.1401184 -0.10764848 -0.2767115 -0.16936824
-0.18199347 -0.09992991 -0.19073103 0.033688325 -0.12876752 0.35300678 0.008834413 0.1010926
0.32816574 -0.10126637 0.008075091 -0.1618913 -0.15516168 -0.1761531 -0.07653404 -0.10893162
0.021078683 0.029115845 -0.1615854 -0.110745504 -0.13011684 -0.19841458 -0.24404679 0.33188453
-0.08092161 -0.07176001 -0.04881835 -0.11528129 -0.06361313 -0.09650894 0.2921114 -0.23354082
-0.17592616 0.08314159 0.05613137 -0.18063915 0.25161445 0.2532316 -0.08930062 0.004298045
0.12756453 -0.15858631 -0.1739576 0.07101009 0.049793266 -0.10163914 0.21015231 0.26117146
-0.06748831 0.027830565 -0.021126978 -0.1575497 -0.27626094 0.31972227 -0.22212926 -0.08660883
-0.10608344 -0.09730571 -0.010991025 -0.09910925 0.2918012 -0.19600815 -0.18323852 -0.1420067
-0.13022588 -0.20049791 0.024498325 0.022187043 -0.20492719 -0.086582534 -0.10043186 -0.17336802
-0.21294929 -0.038477488 -0.10279697 0.31048706 -0.014683458 0.04992054 0.36793306 -0.11033896
-0.020497682 -0.1816468 -0.092572734 -0.22535335 -0.16050757 -0.2639127 -0.14107996 -0.10946546
-0.28717667 -0.18466131 -0.1900603 -0.1206987

val_conv1.weight f4 [2, 128, 1, 1]
00000000: 5cf6 2dbe 546f efbd 239a c93d 0709 9fbd
00000010: 2677 e1bd e1d4 1c3e a6f1 4e3d 2d50 a53d
00000020: 540a cabe f893 fa3d 8e06 bcbd f60e d4bd
00000030: 4139 08be 9784 a53d 848f 953e 56d8 27be
00000040: 5421 953d fa90 88bd 9d6b 283e 6cef 14be
00000050: 3d46 f93d 4f20 b53d 516e 453e 49dd 823d
00000060: ea76 993d 1ec4 9e3d 071d 053e 1961 c03c
00000070: c7a1 abbd a38a fcbd c7e4 8bbd 1c00 8d3d
00000080: d1d0 b4be 2072 1938 64e5 a43e 657c 743d
00000090: 8218 dc3d b4ff 783d 0de9 a7be f420 3d3e
000000a0: 995d 473e ffe3 6d3d d461 c3bd 3550 75ba
000000b0: cb7b 293d 07d0 113d 724b e83c 2537 0c3e
000000c0: 081c 823e 63d5 0c3e df15 b8bd feca 103e
000000d0: 9682 8cbe 1eca 603e d2e1 29be 16bf c9bd
000000e0: 5b9f efbc d638 e6bc 3ffc 433e 2eb5 1e3e
000000f0: 151a 87be c31f 77bb 9499 82be ab8e 8abe
00000100: 1715 6d3e 379c 9a3e db2a 5c3e be0b 2b3e
00000110: 046d cb3d 6132 623d a515 e9bd 4d41 e93d
00000120: 73eb 89be 9ea5 6d3d 13c8 03be 4d06 fe3c
00000130: 2759 183e ef88 babd 641e 99bd 1502 afbe
00000140: 3ab4 773e 449a 633d 810b 763d 7dbf 973e
00000150: 1d6e bf3e 19aa 48be b4c7 4f3e a2e2 6f3e
00000160: 5be3 493e 5173 b8bc 961c 473e fd81 553e
00000170: e73b cebd c4c5 7d3d e9f5 06be e8de 25be
00000180: 8714 01be 48ba 95bd 1ff7 3e3d c5a9 d5bd
00000190: 27cf 16be 0a53 4e3e 73ca 98bd 500f cebd
000001a0: 1a60 cf3d 2af6 3bbd 2bd0 bc3a d72d 51bd
000001b0: a1e2 283e cb04 373e 70dc 57be fd16 973e
000001c0: 8424 183e 3836 e03d fb17 89be 0306 21be
000001d0: 0c9b 83bd 5220 9e3d b30b d73c 6808 71bd
000001e0: 8305 193c 033c 753e 2288 37be ce20 633d
000001f0: 4c23 6d3e 714b c9bd b7d0 963e 73e1 22be
00000200: 0e9b 613d 0f5d 663c ab5e 8dbc aa4c a83c
00000210: d276 1b3c 1855 d1bc a014 67bc 142c d53b
00000220: 34ec 353d 2bd7 273c 2f2c 003d 13a3 833c
00000230: 4970 2bbc 70be 0d3c ed8b 14bd fc07 a63c
00000240: 636f b53b 6974 d03c f5bf 75bd dac3 0f3d
00000250: e450 7c3c 8257 d8bb 80e2 9ebd fa2d 473c
00000260: 2043 7dba 3a43 ffbb 712c debb 6045 bdbc
00000270: c96a 983c 8bc4 383d b59b 863c 05de 193c
00000280: a749 9f3d 3a94 d121 f79f c0bd d615 d03b
00000290: 7d20 e6bb 9c84 edbc d931 2e3d c0b5 cbbc
000002a0: 261c febb 7f09 d4bc 25ca 183d 8eef 57ba
000002b0: 0437 0dbc ee9c c7bc 86a8 c4bc 6b76 923c
000002c0: 7cfe a5bc 4714 b2bd f8bc 8b3c 8bae 26bd
000002d0: 4f14 6b3d caf8 f9bc 9b8f 193c 338d c93c
000002e0: 3b93 12ba 997b 663c 3259 88bd c481 86bc
000002f0: 5653 243b c203 9133 3bf3 343d a699 a13c
00000300: b9c0 0abd 550a 0d3d e1f2 d8bb 3025 bebd
00000310: d681 003c a72e 36bc 4900 cb3c b798 f3bc
00000320: 5253 af3c f7bd e83b 0deb 6b3c 6b88 9abd
00000330: e52c 153c 9f53 e83c 70ff a73c 65c3 263d
00000340: 0807 a6bc a124 7cbc 3665 ccbb f523 80bb
00000350: 5c41 48bd 823f 423d 6c81 63bc a9da 97bb
00000360: 00db 353d 0fd7 873c af56 82bd 0b6d 71bb
00000370: 9542 b73c 6d0f 78ba 1767 fd3b 4405 e93c
00000380: 0bef 823c 2783 e83c 5fb5 ecbc f3a2 ac3c
00000390: 016d b03c 522a 5bbc 578d a13c 6003 ee3c
000003a0: 207a 36bc 0032 d73c 3075 7b33 8338 c83c
000003b0: 0518 10bd 9655 89bd 11fa 24bd c905 de3b
000003c0: 736d 0d3c 93ea 043d a764 6d3d 558e d53c
000003d0: 2aff f03c 2a9e 413b 00ef d7bb a9ad 053d
000003e0: 3a3d 60bd 39ff 52bd 8247 a43c 4358 273b
000003f0: f915 90bc 1f56 e83b 65ef 64bd da1a 443c
-0.1698851 -0.11691156 0.09843852 -0.07765394 -0.11009054 0.15315582 0.050523423 0.08071933
-0.39461005 0.12235254 -0.09180938 -0.10354416 -0.1330309 0.0808193 0.29211056 -0.1639112
0.072817475 -0.06668277 0.16447301 -0.14544457 0.121716 0.08844053 0.19280364 0.06389863
0.07493384 0.0775225 0.12999354 0.0234838 -0.08380466 -0.1233113 -0.06830745 0.068847865
-0.35315564 3.658433e-05 0.3220626 0.059688944 0.10746862 0.060790733 -0.3279499 0.18469602
0.19469298 0.058078762 -0.095401436 -0.000935796 0.041377824 0.03559878 0.028356288 0.13692911
0.2541201 0.13753276 -0.089885466 0.14139935 -0.2744338 0.21952102 -0.1659005 -0.098509
-0.029250791 -0.028103273 0.19139193 0.15498802 -0.26387087 -0.003770814 -0.25507796 -0.27061972
0.23152576 0.30197307 0.21500723 0.16703698 0.099329025 0.055223826 -0.113810815 0.11389408
-0.26937446 0.058019273 -0.12869291 0.031008864 0.14877759 -0.09108149 -0.074765 -0.34181276
0.24189845 0.05556704 0.060069565 0.2963828 0.37388697 -0.19596137 0.20291024 0.23426297
0.19715635 -0.022515925 0.19444498 0.20850368 -0.10070019 0.061956182 -0.13179745 -0.16198313
-0.12605487 -0.07310921 0.04662239 -0.104327716 -0.1472746 0.20148864 -0.07460489 -0.100615144
0.10125752 -0.045889057 0.0014405301 -0.051069107 0.16492702 0.17872922 -0.21080184 0.29509726
0.1485768 0.109478414 -0.26776108 -0.1572495 -0.06426057 0.07721008 0.026250696 -0.058845907
0.009339693 0.23948674 -0.17923024 0.055451207 0.23157996 -0.098288424 0.29456112 -0.15906315
0.055079512 0.014060273 -0.017257055 0.020544369 0.009488778 -0.025553271 -0.0141040385 0.0065054987
0.044414714 0.010244171 0.031292137 0.01606897 -0.010463783 0.008651361 -0.036266256 0.02026748
0.00553696 0.025446134 -0.059997518 0.035098888 0.015400145 -0.0066022286 -0.07758045 0.012156958
-0.00096611865 -0.0077899965 -0.0067802 -0.02310437 0.018605607 0.045109313 0.016431669 0.0093913125
0.0777772 1.4201626e-18 -0.09405511 0.0063502593 -0.007022916 -0.028993897 0.042528007 -0.024866939
-0.0077548204 -0.025883434 0.037302155 -0.00082372956 -0.008619074 -0.024366822 -0.02400614 0.017878732
-0.02026295 -0.08695274 0.01705788 -0.0406938 0.057392415 -0.03051414 0.009372617 0.024603462
-0.0005591397 0.014067554 -0.06657638 -0.016419299 0.0025074086 6.752772e-08 0.044177275 0.019726586
-0.0338752 0.03443368 -0.0066207503 -0.09284437 0.007843455 -0.011119521 0.02478041 -0.029735906
0.021402035 0.0071027237 0.014399302 -0.07545551 0.009104942 0.028360186 0.020507544 0.040713686
-0.020267025 -0.015389592 -0.006237651 -0.0039105364 -0.048890457 0.047423847 -0.013885837 -0.0046342206
0.044398308 0.01658204 -0.0636419 -0.0036838676 0.022370616 -0.0009462748 0.0077332365 0.028444894
0.015983125 0.02838285 -0.028895078 0.021073794 0.021536352 -0.013376789 0.019720716 0.029054344
-0.011137515 0.026268959 5.8547073e-08 0.02444101 -0.035179157 -0.06705777 -0.040277544 0.006775592
0.008632052 0.03245027 0.057957318 0.026068846 0.029418547 0.0029543736 -0.0065897703 0.03263632
-0.05474589 -0.05151293 0.020053629 0.0025534786 -0.017588602 0.0070903446 -0.055892367 0.011969293

val_conv1.bias f4 [2]
00000000: d2fd 2fbc a371 6d3a
-0.010741668 0.0009057766
